Root/models/mnist_cnn.pt (torch, 111397 bytes, 12 tensors)

rnn.weight_ih_l0 f4 [256, 28]
000000 00 c8 1d 3d 49 46 a2 bd b3 3f 17 bd 5f 5e 9c 3d
       0.038520813 -0.07923562 -0.036925983 0.07635187
000010 89 26 9c bd 1e be 35 3e 58 c4 f7 3d 53 0e 31 3e
       -0.076245375 0.17748305 0.120979965 0.1729062
000020 fe fe 2c 3e 41 89 e3 3d 0c 44 b0 3d 0e ea 43 bc
       0.16894147 0.111101635 0.08606729 -0.011957658
000030 6a 95 bf 3d a0 19 ab 3c 78 bd 7d 3d 2d a9 6f bb
       0.0935467 0.020886242 0.06194827 -0.0036569342
000040 5e f2 f3 bc 5f 6c 91 bd 97 b2 c5 3d 07 c1 87 3d
       -0.029778656 -0.07100748 0.09653204 0.06628614
000050 ca 2c 88 3b a5 21 3f bd 55 ef e8 bc 1d e6 cc bd
       0.00415573 -0.046662945 -0.028434435 -0.10004828
000060 5d 7a 01 be 34 9a 2c be 61 80 81 3c 28 54 15 3d
       -0.12644334 -0.16855699 0.015808286 0.03645721
000070 e8 44 34 be cb ea c7 3c 10 9e 97 bc 6a 70 67 3d
       -0.1760441 0.02440395 -0.018507987 0.05650369
000080 1f 63 78 3d 93 2e 5a bd eb 2d 4a 3c ee f3 72 3d
       0.060641404 -0.053267073 0.012340049 0.05931466
000090 60 4d 13 3e c6 a9 b8 bd b0 4d 5c 3b dc c0 e7 bb
       0.14384985 -0.09016757 0.0033615641 -0.007072551
0000a0 d8 74 5c 3e cf 8b 61 3c c6 b9 17 3e d7 91 e8 3d
       0.21528947 0.013766243 0.1481696 0.11355942
0000b0 c8 2e e1 3d 63 7b 58 3e f7 e8 3a bc c6 03 b7 3d
       0.10995251 0.21140818 -0.011408082 0.089362666
0000c0 33 a9 60 bb e9 1c 90 3d 58 34 ad bd 9e b0 8a bd
       -0.0034280538 0.07036764 -0.084572494 -0.06771968
0000d0 10 ad 11 3d 2b e4 78 bd 2f 38 bd 3d 5f a9 48 3d
       0.035565436 -0.060764473 0.09239232 0.04898965
0000e0 92 70 48 bd ce 80 03 be 88 07 02 3d 43 d3 93 3c
       -0.04893548 -0.12842104 0.031745464 0.018045073
0000f0 7d 10 de bd a6 e7 04 3e cb c8 15 3e 6a b1 25 3e
       -0.10842989 0.12978992 0.14627378 0.1618096
000100 9d c9 b9 ba a8 d8 1c bd b2 2e a6 bc 28 b4 2c 3d
       -0.0014174465 -0.038292557 -0.020285938 0.042163998
000110 8c 87 89 bd 13 19 bc bd ce 32 7a 3d a2 9c 70 bd
       -0.06715307 -0.0918447 0.061083607 -0.058743127
000120 c4 f1 f3 3c 7c fa 30 bd c1 f6 9f bd 48 c6 08 be
       0.029778369 -0.04320763 -0.078107364 -0.13356888
000130 29 29 e9 bd 1a 85 20 bd e2 cf 20 be 40 37 0b 3d
       -0.11384804 -0.039189436 -0.15704301 0.033988237
000140 02 a6 f0 bd 51 60 ed bd cf 61 11 bd c6 ad 83 bd
       -0.117504135 -0.115906365 -0.03549367 -0.06429629
000150 61 d3 80 3d 58 5a ae bd 99 3f eb bd 48 63 f6 3d
       0.06290317 -0.085133255 -0.1148674 0.12030655
000160 b2 af 73 3a 77 d0 8b 3d 8b 23 07 3e e0 93 6f bc
       0.0009295895 0.06826871 0.13197152 -0.0146226585
000170 19 5c 44 3d b7 c9 40 3d 44 da 6a bc 74 5c 55 3d
       0.047939394 0.04706737 -0.014334265 0.052090123
000180 2b aa 17 3e 03 bd 0b 3e f6 a7 a7 bd 8a ba 16 be
       0.14811008 0.13646321 -0.08186333 -0.14719597
000190 ab b2 78 3c 05 55 59 bc 90 9f 27 3e 7a ec ad 3d
       0.0151793165 -0.013264899 0.16369462 0.0849237
0001a0 ec 12 aa bd 9f 4c c8 bd 7a cb ef 3d a6 ca 70 bd
       -0.0830439 -0.09780239 0.11708732 -0.05878701
0001b0 21 3e 98 bc 6d 31 5f bb 04 84 f3 3c 37 ca b6 3d
       -0.018584313 -0.003405656 0.029726036 0.08925288
0001c0 85 b4 8c 3d 7f f8 03 be aa f6 ac bc c2 68 91 3d
       0.06870369 -0.12887762 -0.021113712 0.07100059
0001d0 63 9c 57 3d 87 04 51 3d b7 19 80 bd ce bf 20 3c
       0.052639376 0.05102971 -0.06254905 0.009811355
0001e0 82 91 7b 3d e5 42 2a 3e ea 8e 54 3e 41 7b 50 3d
       0.061418064 0.1662708 0.20757642 0.050898794
0001f0 b3 ed 2c 3e f3 95 b3 bc 2c 4d d6 bd a9 27 9d 3c
       0.1688755 -0.021922087 -0.10463938 0.01918395
000200 d8 c5 e3 3d 6f 02 21 3e 08 3a 1e bd 6d 32 6e 3d
       0.1112172 0.15723585 -0.03862956 0.05815356
000210 51 6b b4 3d 58 07 21 3d cd 5e b3 3d cb 3c bb 3d
       0.088095315 0.039313644 0.08758316 0.09142455
000220 d6 8b 7c 3d e8 19 cb bb cb c5 fd bd 6a ca 17 be
       0.061656795 -0.0061981566 -0.12391242 -0.14823309
000230 17 51 9e bd 68 ce 0b bd b0 93 c9 bd b8 54 f8 bb
       -0.077303104 -0.03413239 -0.09842622 -0.0075784586
000240 da 2e a3 bc 00 a1 b6 bc db f4 ac 3d fe 80 b9 3d
       -0.019919802 -0.022293568 0.0844514 0.090578064
000250 40 b7 59 3d 35 52 de 3c 04 14 ea bd 71 11 f2 bd
       0.053153276 0.027138809 -0.11429599 -0.11819733
000260 a4 51 a3 be aa 4f 13 be 19 06 1e be 19 69 c7 bc
       -0.31898224 -0.14385858 -0.15432014 -0.024342107
000270 0b be a3 3d f2 54 1d 3e 4f 0b 4b 3e 6c 55 a2 bb
       0.07995232 0.15364435 0.19828533 -0.0049540307
000280 82 b6 10 bc b8 5b fb 3d 65 94 6b 3d c0 2f 38 3d
       -0.008832576 0.12273353 0.057514567 0.044967413
000290 19 3c 18 be df 5a e0 bc 57 6b 85 bd 2f a8 47 bd
       -0.14866675 -0.02738708 -0.06514614 -0.048744377
0002a0 71 13 08 be 04 3c b3 bd 45 a0 5d bd 98 a8 4e 3d
       -0.13288666 -0.087516814 -0.054107923 0.050453752
0002b0 34 9c 99 bb 36 a7 e0 bc 59 69 ab 3d cc 37 82 3c
       -0.0046878103 -0.027423482 0.08369703 0.015895747
0002c0 ca 52 01 bd 28 5e b3 bd ea a2 bc bd d5 17 cd 3d
       -0.031573094 -0.08758193 -0.09210761 0.10014311
0002d0 22 56 7f 3c 8c 63 cd b9 3b cf 3b be d5 89 c0 bd
       0.0155845005 -0.00039174815 -0.18340771 -0.094012894
0002e0 7e 10 f2 bd a5 82 ce 3d 5b 03 2c be e3 dd eb bd
       -0.11819552 0.10083512 -0.16798155 -0.11516931
0002f0 f7 bc 02 3d aa 3e 31 bb d6 bb d6 3d 19 e3 d7 3a
       0.031918492 -0.0027045407 0.104850456 0.0016470879
000300 5b 8c 47 bd ed a9 ce 3c 61 89 9b 3d 00 c1 f3 bd
       -0.048717838 0.025227511 0.07594562 -0.11902046
000310 a4 ac 07 be 6a 45 c4 bd 5c c3 aa bc 42 2d 18 be
       -0.13249451 -0.09583552 -0.020845108 -0.14861014
000320 8e 1e 84 3d 0a dc be 3c 98 e1 42 3e 38 cd 8d bc
       0.0645114 0.023298282 0.1903137 -0.01730977
000330 87 17 2d 3d 16 a3 8c bd c5 fb bf bc 84 ee 86 3d
       0.042258766 -0.06867044 -0.023435483 0.06588462
000340 77 a8 e7 3d 07 5e f1 3d 75 99 a7 3d b0 f7 16 3e
       0.11311429 0.117855124 0.081835665 0.14742923
000350 b5 d5 95 bc 5f 22 af 3d 16 a7 9f 3d f0 ce b8 3d
       -0.01829038 0.08551478 0.07795541 0.09023845
000360 62 85 b1 3d 3d dd a5 bc 92 2c a2 3c f7 a8 35 3e
       0.08668019 -0.020247096 0.019796643 0.17740236
000370 67 25 f8 bd ad db 71 bc 0e c8 81 be b4 c9 8d be
       -0.12116509 -0.014761847 -0.25347942 -0.2769295
000380 1e 2a 85 3d 31 cf ad bd 4c ce ee bc 82 1d 9e 3d
       0.06502174 -0.08486784 -0.029151104 0.07720472
000390 11 83 cf 3d 52 6e 1f 3e 9a 69 d0 3d 98 44 ba 3c
       0.10132421 0.15569428 0.10176392 0.022737786
0003a0 d7 ea 51 3e bf af ca 3c 29 b0 8c bc 45 85 eb 3d
       0.2049974 0.024742005 -0.017173843 0.115000285
0003b0 8b fe 28 3c 5f 94 14 3e e3 fe cb 3d 13 b2 f2 bd
       0.010314594 0.14509724 0.09960725 -0.11850371
0003c0 f6 c6 20 be 04 36 a1 bd 98 71 6a 3c e8 5d 36 bd
       -0.15700898 -0.07871631 0.014309309 -0.04452315
0003d0 ff bf 3a be 63 50 d0 bd be f1 08 be 22 4b 22 be
       -0.18237303 -0.101715825 -0.13373467 -0.15848973
0003e0 a8 ec 3f be 63 f0 7b 3d 72 ad df 3d 49 b7 10 bd
       -0.18742621 0.061508548 0.10921754 -0.035331044
0003f0 0e 70 12 bd af b6 62 3c d2 ab 9b bc 1c 82 77 bd
       -0.035751395 0.0138375005 -0.019002829 -0.060426816

rnn.weight_hh_l0 f4 [256, 64]
000000 3d 7a 16 bc e7 f8 35 3e 27 85 6b 3d 86 72 a0 bc
       -0.009184417 0.1777073 0.05750003 -0.019585859
000010 11 ef 1a bd 4d ef bd bd 13 e2 3b bc 06 4d 14 bd
       -0.037825648 -0.092741586 -0.0114674745 -0.036206268
000020 97 1f 21 3e 33 96 57 3e 42 9c 07 bd 55 8a 87 3d
       0.15734707 0.2105339 -0.033108003 0.066181816
000030 b2 8d 27 3d e3 e1 0b 3d 5a 7e d1 3d bb 6d a2 bd
       0.040906616 0.03415097 0.10229178 -0.07931086
000040 8c f5 ba 3d 3f e8 2d 3d d5 2c c3 bc b8 46 5e bc
       0.091288656 0.042457815 -0.023825089 -0.013566665
000050 d4 31 9c bd fe 61 ee 3d 92 fe 34 bd b9 e9 c5 bd
       -0.076266915 0.11639784 -0.04418809 -0.0966372
000060 bd 9e af bd 27 12 45 3d bd f3 85 be 04 e1 35 3d
       -0.08575199 0.048113015 -0.2616252 0.044404045
000070 34 64 b7 3d f9 3f 28 be 63 1e 16 be 01 82 d8 bc
       0.08954659 -0.16430654 -0.14660029 -0.026429178
000080 15 60 89 bd c4 96 f7 3d cd 0e 9c bc c4 f5 c4 bc
       -0.06707779 0.12089303 -0.019050026 -0.024042971
000090 17 4d 81 3d f7 a6 ab bb 0a b6 3f 3e 6a a7 96 3d
       0.06313532 -0.0052384096 0.18721786 0.073561504
0000a0 cd 45 12 be 09 a3 48 3d 73 8c 50 3e be db ca ba
       -0.1428444 0.048983607 0.20366077 -0.0015476865
0000b0 94 81 01 3e b7 47 a9 bd fd 49 3a 3e a4 3f 93 bd
       0.12647086 -0.08265632 0.18192287 -0.07189873
0000c0 e3 4b 80 3d c9 ee 14 bc cc c2 14 bd ce d0 71 bd
       0.06264474 -0.009090134 -0.036318585 -0.059037022
0000d0 39 c6 5b bc 3b 4a d3 ba 61 43 1a 3e 9a d7 4d be
       -0.013413959 -0.0016120145 0.15064766 -0.20101777
0000e0 8a b0 0c bd 84 42 e4 3d 65 51 12 be f4 00 21 3e
       -0.03434805 0.11145499 -0.14288862 0.1572302
0000f0 95 51 ae bc c5 16 93 3c 4a 2f 64 be d2 36 0a be
       -0.021279136 0.017955193 -0.22283664 -0.13497475
000100 3d 91 dd 3d 58 a8 de bd 09 06 ae 3e 65 9d ee bd
       0.10818718 -0.10871953 0.3398898 -0.116511144
000110 e5 09 ac bd 96 bc 23 3e ae ba b3 bc 5b b1 90 3e
       -0.08400325 0.15989909 -0.021939602 0.2826031
000120 ac 18 11 bd 15 35 33 3e a4 ca 4e be d4 8c f0 bd
       -0.03542392 0.17500718 -0.20194489 -0.11745611
000130 7c a2 0e be 19 6b b6 bc ae 6e 55 3e d1 6e 9e 3c
       -0.1392917 -0.022267865 0.20843002 0.01933995
000140 29 32 f0 bd 3f df 72 bc 03 8e f2 3d 25 67 52 bc
       -0.11728317 -0.014823734 0.11843493 -0.012841974
000150 c8 d3 30 3e ee 03 68 be 8c 41 8d 3d f8 cc a0 3e
       0.17268288 -0.22657749 0.06897268 0.3140638
000160 42 27 25 be b1 51 e1 3d 6d ea 82 bd c8 ae 11 3d
       -0.16128257 0.110019095 -0.063923694 0.035567075
000170 08 af 8a bd 5e 92 a0 bd 9c 91 7f bd 91 59 a8 bd
       -0.06771666 -0.07840417 -0.062394723 -0.082202084
000180 31 98 15 3e a3 b0 41 3e e7 4a 96 3d 15 57 6b 3e
       0.14608838 0.18915038 0.07338505 0.22982438
000190 12 2d f3 bd fe 9a 5e 3d c3 5c 7f 3d ad e3 68 be
       -0.11873831 0.05434703 0.062344324 -0.22743101
0001a0 65 45 10 3e a2 cf 8b 3d 4d 28 02 be aa be e7 3c
       0.14088972 0.06826712 -0.12710686 0.028289158
0001b0 eb 5c 63 be 19 ba e3 bd 8f fc 57 3e f3 20 0c be
       -0.22203414 -0.1111948 0.21092437 -0.13684444
0001c0 e8 9d 9d bd 5c 55 63 bd 2e fd 3f 3d b6 db 1e 3d
       -0.07696134 -0.055501327 0.04687231 0.03878375
0001d0 a3 dd 9d bc c5 60 83 be a7 d0 92 bd 7f ec 40 bc
       -0.019270724 -0.25659767 -0.071687035 -0.011775135
0001e0 26 67 d1 3e b6 d8 91 bd 4b 24 a1 bc 4b 24 c2 3c
       0.4089901 -0.071214125 -0.019670626 0.023698946
0001f0 a3 95 51 be cd ee a1 ba 0c 5d a5 3d d5 d7 40 3d
       -0.20467238 -0.0012354493 0.08074388 0.047080833
000200 d8 a8 26 3e 8b ae 25 be 99 20 b1 3d 6c 7d 95 3d
       0.16275346 -0.16179864 0.08648796 0.07299313
000210 b6 35 04 bc c1 fa c0 bc 86 93 5b 3e 31 34 e8 3d
       -0.008069446 -0.023557069 0.21442994 0.1133808
000220 1b 4c 4e bd be 70 2d bd 98 6e 09 be 22 32 0f be
       -0.05036555 -0.042343847 -0.13421094 -0.13983968
000230 b2 51 7d be e8 bf 7d 3d 01 e4 1d 3d 0c e0 10 3e
       -0.24738196 0.061950594 0.03854752 0.14147967
000240 ba 5c 1c bd a6 b4 2f 3d 35 fd 3e 3b 31 ec a7 3d
       -0.03817437 0.04289689 0.0029142622 0.08199347
000250 9c b1 5e 3e 6f c0 05 3c 92 ce fe 3d 0a 57 36 bd
       0.2174744 0.0081635555 0.12441744 -0.0445166
000260 b2 19 d8 bb 57 29 1e bd f0 42 b7 3d de 27 89 3e
       -0.00659486 -0.038613643 0.08948314 0.2678823
000270 2f 4d 79 bd 06 49 5c 3d 11 da 8c be c1 dc ee bd
       -0.060864624 0.053780578 -0.2751012 -0.11663199
000280 d3 d3 e9 3d 78 02 07 be 0b 34 e4 bd cc 41 03 3e
       0.114173554 -0.13184536 -0.11142739 0.12818068
000290 a3 60 76 3d 22 f4 6b be 6e b7 5d be 3a dc a1 bc
       0.060150754 -0.23042348 -0.21652004 -0.019758333
0002a0 69 38 f8 bc fe 94 19 3e 34 9b 47 be 09 08 d0 bc
       -0.030300336 0.14998242 -0.19492799 -0.025394456
0002b0 99 d5 cd bd ee d4 47 bd c0 c6 ba bd d6 2f 88 bd
       -0.10050506 -0.04878705 -0.0911994 -0.06649749
0002c0 1e ac f9 bd 23 1d 98 bd 36 ea 17 3e 3f 73 85 3d
       -0.12191032 -0.074274324 0.14835438 0.06516122
0002d0 9a db 06 3d 74 b3 3a be 9f b2 50 3d ed 72 10 be
       0.032924272 -0.18232518 0.050951596 -0.1410634
0002e0 d7 7e 4a 3e 9f 9a 39 be 7e e1 c2 3c d4 09 59 bd
       0.19774948 -0.1812539 0.023789164 -0.05298789
0002f0 08 ab 12 3d 6d 76 c6 3c 44 84 9a bd c2 43 1b 3e
       0.03580764 0.024226392 -0.07544759 0.15162566
000300 46 43 af bc cd 64 05 3e c6 32 e9 bd a2 2a f4 3d
       -0.021394383 0.13026734 -0.113866374 0.11922194
000310 a7 d2 0a 3e f4 44 54 bc e4 3e 41 3e 3b a0 72 3c
       0.1355692 -0.012955893 0.18871647 0.01480871
000320 11 dc 31 be a3 1e 25 be e1 0f 27 3e 22 b5 52 3e
       -0.17369105 -0.16124968 0.16314651 0.20576909
000330 9d fa 0e bd 6f 67 8f 3e a4 82 b6 bd d9 ed bf bc
       -0.034906972 0.280086 -0.089116365 -0.023428844
000340 b5 f8 cd bd 3d da 96 bd 09 4c 33 3d 88 4c 13 be
       -0.10057203 -0.073658444 0.043773685 -0.14384663
000350 f4 46 8f be 8f df 0d 3e 90 3a 3f 3d 81 fe e3 bd
       -0.2798382 0.13854812 0.04668671 -0.11132527
000360 d4 11 8e 3d ba 40 3d 3d 98 6b 2b bb 52 09 91 3e
       0.06936994 0.046204306 -0.002615666 0.28327423
000370 c0 bc 89 3e 32 ac 8b 3d 85 0a 7c be ac fb 28 3e
       0.26901817 0.06819953 -0.24613388 0.16502255
000380 a8 cd 2e 3e f4 65 24 be 22 22 80 3d 40 28 81 bd
       0.17070639 -0.16054517 0.0625651 -0.06306505
000390 8f 1f ad bd 0a ae 19 3e 26 ae 1b bc 05 58 01 3e
       -0.08453285 0.15007797 -0.009501969 0.12631233
0003a0 c5 30 df bc ef 28 f4 3d 4b 72 25 3e 30 fb c5 3c
       -0.027244935 0.1192187 0.1615688 0.024167627
0003b0 3b d5 11 bd 92 88 4b 3e 68 fd f4 bd 8f de 60 3e
       -0.035603743 0.19876316 -0.11962396 0.219599
0003c0 df 50 8c 3e 8c 05 31 3e 98 4a ca bb 1a 81 26 3e
       0.2740545 0.17287272 -0.006173443 0.16260186
0003d0 1f b3 5f bd 0b 01 9c 3e 89 ce 4b be 8f fa 6a bd
       -0.054614183 0.30469546 -0.19903006 -0.057367858
0003e0 fa b7 4b be ff 37 27 3e 86 37 d1 3d d7 86 24 3e
       -0.198944 0.16329955 0.102156684 0.16067062
0003f0 f3 8b 40 3d 5c d4 78 3d 93 d9 6e be a3 b6 56 3d
       0.047008466 0.060749397 -0.23325185 0.05242027

rnn.bias_ih_l0 f4 [256]
000000 ff e5 e4 3d 8a 3e 31 3e 4f 3e 05 3d 8c 6e 3b bd
       0.11176681 0.17309013 0.032530125 -0.045759723
000010 42 12 7e bc 3b 1a 1c 3d 59 fc b9 bd ee f8 9e 3d
       -0.015507283 0.038110953 -0.090813346 0.07762323
000020 ba be 9e 3c f6 39 ef bc 8b a8 0b 3e a5 82 0d 3e
       0.019378055 -0.029202443 0.13638513 0.13819368
000030 42 87 2b bd 93 f8 41 3e 67 b9 d9 3d 07 d7 1d 3e
       -0.04187704 0.1894248 0.10631066 0.15414058
000040 29 47 b1 bd ea 1d 39 3e 3b e7 d0 bc e3 da 21 3e
       -0.08656151 0.18077818 -0.025500884 0.15806155
000050 7e 35 e4 bb 8f f4 b6 bd be d5 03 3e d7 55 cb 3d
       -0.0069643846 -0.089333646 0.12874505 0.09928482
000060 dd 6a 4e bd 54 81 af 3d 56 f4 af bd 6d 44 74 3b
       -0.05039488 0.08569589 -0.08591525 0.003727223
000070 3f 31 21 3d 02 77 7e 3e 01 b0 31 3e 96 34 0c be
       0.039353605 0.24850085 0.17352296 -0.13691935
000080 69 32 7f 3d 5c 96 9b 3d 71 3f 1c 3d e0 c5 90 3d
       0.062303934 0.07597038 0.03814644 0.07068992
000090 d6 c6 96 3c b3 4f fc 3d 1d d6 55 bc f6 ac df 3d
       0.01840536 0.12319889 -0.013051537 0.109216616
0000a0 fa 7a 2f bd a1 34 bd bd fc b4 07 3e a3 83 aa ba
       -0.04284189 -0.09238554 0.13252634 -0.0013009202
0000b0 c5 cf e1 bb 0f 02 0c be 3b 26 4d 3e 0a 21 08 3e
       -0.006891223 -0.1367266 0.20034115 0.13293853
0000c0 59 9b 53 bc 0b 6c ba 3d 76 7e 9f bd 49 29 c3 bc
       -0.012915456 0.09102639 -0.077877924 -0.023823397
0000d0 05 86 55 3d 86 44 03 3a f6 7a d3 3d 17 b7 13 be
       0.052129764 0.0005007464 0.10326187 -0.14425312
0000e0 91 2e 9b bd d6 b1 aa bd 09 23 b5 3d a1 a6 b1 bd
       -0.07577241 -0.08334701 0.08844573 -0.0867436
0000f0 3c 5c b9 3d a5 a6 5d bc fb 5b 64 3e 77 d4 0e bd
       0.090507954 -0.013528501 0.22300713 -0.03487059
000100 5e 86 86 3d e8 3e a0 3d f7 40 0f 3e 53 b3 d0 3d
       0.06568597 0.078244984 0.13989626 0.101904534
000110 fa 47 30 3c 07 c9 15 3d 41 b2 20 3d b1 31 b6 3d
       0.010759348 0.036568668 0.039232496 0.08896197
000120 2a 11 b6 3d 50 ec 9a 3d 99 3a 43 bd 40 a1 8a bc
       0.088899925 0.07564604 -0.047663305 -0.016922593
000130 1f 61 26 3e a5 6e 93 bd 5b d8 29 3e d4 30 33 3e
       0.16247986 -0.07198838 0.1658644 0.17499095
000140 a6 0a 7a 3d 80 80 9d 3d a6 44 97 3d a0 40 86 bc
       0.06104531 0.07690525 0.073861405 -0.016388237
000150 b0 b4 ff bc b4 31 0b 3c 23 6d b9 3d 20 69 21 3e
       -0.031214088 0.008495737 0.09054019 0.15762758
000160 ea 8e 83 bd eb 4a b6 ba 47 5f 1e 3e 4f 4e d0 3d
       -0.06423743 -0.0013907825 0.15466033 0.10171186
000170 4e c8 3e 3e 74 2b e4 3d a9 27 d1 3d 33 6e c6 3c
       0.18631098 0.111411005 0.10212643 0.024222469
000180 e8 88 ae 3c c0 50 1f 3e db 38 c0 3d 40 16 23 3e
       0.021305516 0.15558147 0.09385844 0.15926456
000190 45 5c 75 ba e7 42 3c 3d df b6 1c 3e 12 36 a5 bc
       -0.00093597575 0.04596224 0.15304135 -0.020167384
0001a0 a1 9e 49 3d 90 c4 83 bd 29 aa 58 3e f9 d8 1d 3e
       0.049223546 -0.06433976 0.21158661 0.154148
0001b0 3d 7e be 3a 4d 5b 83 3d 5f 50 85 3d 3d e0 69 3d
       0.0014533472 0.064138986 0.0650947 0.057098616
0001c0 05 c6 51 3e 83 b4 9c 3d 1c c0 91 3d 22 c9 7b 3d
       0.20485695 0.076516174 0.0711672 0.061471112
0001d0 ba 5c 41 bc 34 2c bf 3c 84 96 4a 3d 44 b0 5b 3e
       -0.011801893 0.023336507 0.04945995 0.21453959
0001e0 e0 84 32 3e 59 44 99 3d 81 fa 47 3d 0c 00 96 3e
       0.174335 0.074837394 0.048822884 0.2929691
0001f0 fc e7 32 3e 50 b9 d1 3d 65 e5 43 bd 2e 3f c9 3d
       0.17471308 0.10240424 -0.04782619 0.09826504
000200 cd d9 af 3a f8 c4 80 3c a6 ec 8f 3d 63 5b 91 bc
       0.001341635 0.015718922 0.07027559 -0.017743772
000210 68 48 84 3d 56 10 60 bd 62 a7 ee 3c 44 41 ca 3d
       0.06459123 -0.05470308 0.029132549 0.0987573
000220 a9 e3 59 3c 41 16 e7 bd a2 2b ae 3d c1 37 42 3c
       0.013298907 -0.112835415 0.08504416 0.011854113
000230 4b 0b 1f be a6 51 fc bc 0e a8 e1 bd c0 74 99 bc
       -0.15531652 -0.030800652 -0.11018382 -0.018732429
000240 b7 2d 74 bd f1 55 12 3e 36 f5 1c 3e 9c 67 a8 3d
       -0.05961391 0.14290597 0.15327916 0.08222887
000250 8c 8f 31 3e 4e 0b ac 3d 44 9d cf bd af be 34 3d
       0.17339915 0.08400594 -0.10137418 0.044127163
000260 64 20 62 3c bf fc ab 3d 3e 62 5f 3d a3 a6 1f bd
       0.013801668 0.08397817 0.05453705 -0.038977277
000270 af eb c1 3d 4a b1 89 bd 14 b1 95 3d 29 bb d7 bd
       0.09468781 -0.06723268 0.073091656 -0.10533745
000280 35 59 24 bd 7f 7b c4 bb 08 f7 7a 3d b4 7a 81 3d
       -0.040124137 -0.005996167 0.061270744 0.06322232
000290 93 5d 4f 3d 09 9d 5a bd a3 40 18 3e 5e aa 8f 3c
       0.05062635 -0.053372417 0.14868407 0.017537292
0002a0 e3 60 a1 3d 9d ed 48 3b 67 54 fb 3c a4 5f 59 bd
       0.07879808 0.0030659207 0.030679895 -0.053069726
0002b0 73 68 e1 bc ac 5a 69 3d 7c 39 58 3d 9b 30 e6 3c
       -0.027515626 0.056971237 0.052789196 0.028099349
0002c0 0b ae 36 3d 36 09 ec 3c 13 10 23 3e 4b 66 1a 3d
       0.044599574 0.028812986 0.159241 0.03769521
0002d0 c0 b5 81 3d a3 08 81 bd 5f 69 83 3d b1 78 8a 3d
       0.06333494 -0.063004754 0.06416582 0.06761301
0002e0 69 87 fd 3c 16 40 a3 bd 27 db f8 bb 24 7a d1 3d
       0.030948358 -0.07971208 -0.0075944844 0.102283746
0002f0 09 33 1d bc bc d5 25 3e e0 d0 05 3d 0e 12 16 3d
       -0.009594687 0.16194814 0.0326699 0.036638312
000300 6d 66 11 3e 49 4c 05 3e 12 54 8f bb 60 71 1e 3e
       0.14199229 0.13017382 -0.0043740356 0.15472937
000310 2d 84 75 bc fb 57 20 bd 8a f9 19 bc c7 79 75 3e
       -0.014985126 -0.039146405 -0.009397874 0.23972236
000320 f8 b4 a3 3d e3 b8 d0 3d d2 e4 ff 3d 65 d6 d7 3d
       0.079935014 0.10191514 0.12494816 0.105389394
000330 ee dc 41 3d 55 a7 42 3e 40 fa 0a 3d 7e 0a 12 3d
       0.047329836 0.19009145 0.033930063 0.035654537
000340 b4 f4 33 3e 37 5e 5e bd 8e d5 30 3e 51 c9 80 3d
       0.17573816 -0.05428907 0.17268965 0.06288398
000350 67 b5 7e 3e d3 ca de 3d 6c b4 46 3e fe 6f a3 3d
       0.24873887 0.108785294 0.19404763 0.07980345
000360 87 4e 0b 3e b4 aa fe 3d 2d f4 51 3d df d6 0a 3e
       0.13604175 0.12434903 0.051258255 0.1355853
000370 4b 20 34 3e 72 c0 f5 3d d5 10 2b 3e de 76 4e 3d
       0.17590444 0.11999597 0.1670564 0.05040633
000380 e9 38 54 3e fb c1 44 3e 26 05 81 3e 6e 07 04 3e
       0.20724835 0.19214623 0.2519924 0.12893459
000390 50 5c 64 3e c6 4f 03 3e 37 d9 1a 3e 2f ea b1 3d
       0.2230084 0.128234 0.15121923 0.08687245
0003a0 fc c9 bd 3d db be c1 bd f7 d5 7d 3e 6f 5c 69 3e
       0.09267041 -0.09460231 0.24788652 0.22789167
0003b0 67 63 5b 3e 8b 84 82 bd f4 c8 5a 3e ff 6a 92 3d
       0.21424638 -0.06372937 0.2136572 0.07149314
0003c0 9c 3b 24 3b 56 3d 85 3d 58 0f d8 3d 9d 11 f3 3d
       0.0025059944 0.065058395 0.105498016 0.11868594
0003d0 03 3a 37 3d 57 c9 41 3e a2 f8 65 3e a9 ee 10 bd
       0.04473306 0.18924461 0.22458127 -0.035383854
0003e0 f6 85 12 bc ab 5c 53 bd 77 ef 6b 3d 61 70 b3 bc
       -0.008943072 -0.051602047 0.05760142 -0.021904172
0003f0 96 ae 5b 3e 8c 57 6b 3d 6b f3 bb 3d 6e 53 c4 3d
       0.21453318 0.057456538 0.09177288 0.095862255

rnn.bias_hh_l0 f4 [256]
000000 c3 e7 15 bd 37 1c c5 3d b8 d1 0a 3e 02 90 f7 3d
       -0.03659798 0.09624522 0.13556564 0.12088014
000010 14 5b 8f bc cc e5 96 bd 56 f4 19 3e 61 2e 8b 3e
       -0.017499484 -0.07368049 0.15034613 0.27183822
000020 30 a8 ef 3d 80 be 34 3d 0b aa 30 3e ec 7f 1a 3d
       0.11702001 0.044126987 0.17252366 0.037719652
000030 bb 83 1f 3e 26 b0 37 3e 47 18 a0 3d 1e 41 ff 3d
       0.15577595 0.17938289 0.078171305 0.12463592
000040 a2 28 05 be 45 6e eb 3d 38 fb 10 3e 7a 31 2b 3e
       -0.13003781 0.114956416 0.14158332 0.16718093
000050 c5 c0 f5 bc 6e d6 0d bd ef bd fc 3d 95 34 cb 3d
       -0.029999146 -0.034628324 0.123409145 0.099221386
000060 14 c8 2e bc ab f8 99 3d c5 19 09 be e8 2b e8 3d
       -0.0106678195 0.07518133 -0.13388737 0.113364995
000070 59 ae 7c 3d 91 cf 48 3e 97 6b b4 3d b4 75 98 3c
       0.06168971 0.1961043 0.08809584 0.018610813
000080 a7 71 bb 3d 37 f7 0d 3e 8d b5 0e 3d e7 d6 94 3b
       0.09152537 0.13863836 0.03484111 0.00454222
000090 43 0a c0 bd 84 81 e4 3c 02 90 f2 3d 2c 1b 9b bb
       -0.09376957 0.02789379 0.118438736 -0.0047334637
0000a0 44 50 b0 bd 87 02 75 bd 33 fa b7 3d 98 41 4e 3c
       -0.086090595 -0.059816863 0.089832686 0.012588881
0000b0 bb bb a1 bc c5 4a 03 bc 4d 88 d5 3d 4d d5 36 bd
       -0.019742837 -0.008013432 0.10426388 -0.044637013
0000c0 63 65 16 3d d5 2a b4 3d 52 c2 c8 3d ae fe 06 3e
       0.036717784 0.08797232 0.09802689 0.1318309
0000d0 ec 53 14 be 5a 4a a6 3b 02 09 89 3d f4 9d 8b bd
       -0.14485139 0.0050747814 0.06691171 -0.068172365
0000e0 28 65 da bc 2a df e4 3d 3f 7b 8b bd a4 c2 b1 3b
       -0.026659563 0.11175378 -0.06810617 0.0054248143
0000f0 da 58 5b 3d 8d 03 4c 3a 00 ae ec 3d 95 2a 84 3d
       0.053551532 0.00077825115 0.11556625 0.064534344
000100 ba 35 39 3d 34 88 a2 3d e7 62 8d 3d 3d ed e9 bc
       0.045217253 0.07936135 0.0690363 -0.028555507
000110 b7 8a 88 3d c5 5e 99 3c 8f 1b 15 3d 2a e8 f4 bc
       0.06667083 0.018721947 0.036403235 -0.02989586
000120 e3 3e ca 3d c5 b0 63 bd 47 96 33 3e 01 3c cc 3c
       0.09875276 -0.055588502 0.17537795 0.024930956
000130 d2 d0 31 bd 8a 3e 98 bd ad 14 cb 3b 23 09 4a 3e
       -0.043412037 -0.074338034 0.006197533 0.19730048
000140 f9 ac cc 3c cd 06 c2 3d f0 df 6c 3d b3 6a 3e 3e
       0.024984824 0.094739534 0.05783075 0.1859539
000150 2b ce fd 3d 90 c8 16 3e b5 a0 b5 3d a8 19 58 3e
       0.12392839 0.14724946 0.08868543 0.21103537
000160 87 a2 08 3e 00 24 45 3b e6 a3 4c 3e a9 29 bb 3d
       0.1334325 0.0030081272 0.19984397 0.091388054
000170 25 5b 29 3e f3 6a 0e 3d 04 99 86 3b a1 a4 ce 3d
       0.16538675 0.034769963 0.0041075964 0.10089994
000180 fa 5e 8e 3d c1 ad 58 3d b6 68 39 bd 26 5d 10 3e
       0.06951709 0.05290008 -0.045265876 0.14098033
000190 45 15 41 3e 40 d1 44 3e 84 74 31 3c 9b 9d 7f bb
       0.1885577 0.19220448 0.010831002 -0.0039003852
0001a0 f9 18 5b 3d 89 6d a5 bb 93 32 26 3e ec 01 1b 3e
       0.053490613 -0.005048458 0.1623023 0.15137452
0001b0 4d 94 d9 bd de ae be 3d 42 b3 1c 3e fe 58 a3 3c
       -0.10623989 0.09310697 0.15302756 0.019939896
0001c0 d2 f8 81 3e 00 24 5f 3e 1d f5 0e be 37 65 8a bd
       0.25385147 0.21791077 -0.13960691 -0.067575864
0001d0 e3 e5 85 3d 1f 0f 6b bd a9 0e 47 3e 97 2c 99 3d
       0.06537988 -0.057387467 0.19439186 0.07479208
0001e0 20 69 07 3e 6d 3f 12 3e be 27 01 bd 3a 10 88 3e
       0.13223696 0.14282008 -0.03153204 0.2657488
0001f0 ed ae 3f 3d 6d 6a f2 3b 95 6d 1c 3c 99 3c 00 3d
       0.04679768 0.007397941 0.009547611 0.03130779
000200 f6 0d ff 3d 7f ec ba 3c 50 e8 75 bd a5 9c fa bb
       0.12453835 0.022817848 -0.060036004 -0.007648068
000210 da 75 8a 3d 99 40 15 3c 8f 37 89 b7 ec 9d 26 3e
       0.0676076 0.00910964 -1.6357544e-05 0.1627118
000220 4c dd a5 3d 15 d0 7b 3d ed 2f f3 3c 52 49 fb 3c
       0.0809885 0.06147774 0.029685939 0.03067461
000230 60 c8 07 be 75 95 05 be a3 36 e9 3d ac d0 f7 3d
       -0.13260031 -0.13045295 0.11387374 0.12100348
000240 5f dd 1d 3e e4 4a aa 3d 3f 0c 0a bc 24 6d 2c 3d
       0.15416478 0.083150655 -0.008425771 0.042096272
000250 36 57 22 3e ba 31 f6 3d 52 f3 59 3d be 70 84 bd
       0.15853581 0.12021203 0.053210564 -0.06466816
000260 45 1a d0 3d 6f 2a 98 bc 12 b7 b2 bd 48 39 03 3e
       0.101612605 -0.018574921 -0.08726324 0.1281482
000270 6f 33 cc 3d 3e 08 bf bd b2 f3 a8 bc 4b f8 ba bc
       0.09970748 -0.09327744 -0.020624015 -0.022823473
000280 70 fd d8 3d fd 6b fd 3d 27 29 aa bd 70 b4 89 3b
       0.10595214 0.12374113 -0.083086304 0.004202418
000290 de 00 1e 3c 27 66 b5 3c ca bd bc bc dd 17 be 3d
       0.009643761 0.022143437 -0.023039717 0.09281895
0002a0 cd b0 31 3d be 39 a9 3d 26 44 e3 3d 22 11 fd bc
       0.0433815 0.082629666 0.11096983 -0.030891959
0002b0 8c 52 c8 3d 0d 70 16 bd b4 a7 87 3c e7 7c 23 be
       0.097813696 -0.036727954 0.01655946 -0.15965615
0002c0 74 73 61 3d b0 b2 a4 3d 9b 3f 28 3e 5f 3b c7 3d
       0.055041745 0.080418944 0.16430514 0.09728121
0002d0 a0 41 28 bd a6 90 52 bc 84 e3 f2 3d 79 41 4d bd
       -0.04107821 -0.01285187 0.118598014 -0.050111268
0002e0 26 7c 91 bd d1 32 aa bd e4 23 bd 3d 38 a7 8e ba
       -0.071037576 -0.08310474 0.09235361 -0.0010883575
0002f0 ed 7c 90 3d 04 15 61 bb 27 f6 46 3c 81 d9 0d 3d
       0.07055078 -0.0034344802 0.012143648 0.034631256
000300 83 07 21 bd 2e 54 2b 3e 35 b3 c3 3d db c3 b2 3d
       -0.039313804 0.16731331 0.095556654 0.08728763
000310 d4 a9 67 3d 11 50 aa 3c 79 d3 c7 3d f2 b3 72 3e
       0.056558445 0.020790132 0.09757132 0.23701456
000320 fb c9 41 bd d2 52 8c 3c 06 46 2b 3e 71 b3 56 3d
       -0.047311764 0.017129336 0.1672593 0.052417222
000330 a0 d5 a4 3b 19 58 f3 3d bf d3 5f 3c ac ed 84 3e
       0.005030349 0.11882038 0.013661324 0.2596258
000340 ca 82 9f 3d c9 a9 cc 3c de 25 dc 3d 67 be 4d 3d
       0.07788618 0.024983304 0.1074941 0.05023041
000350 d8 66 57 3e 90 ba 62 3e f9 1b 5d 3d fd a2 4b 3d
       0.21035326 0.2214148 0.053981755 0.049715985
000360 eb 1e 62 3e 2c 47 f3 3d fe 8b 28 3e 0e 8f ab bc
       0.22082107 0.11878809 0.16459653 -0.020942237
000370 8c 2c 36 3d 7c e6 2a 3e 60 cc 74 3e 8f bc 46 3b
       0.044476077 0.16689485 0.23906088 0.0030324792
000380 4d 2b 33 3e 7c 8d c4 3d b1 89 9e 3d fd 34 ac 3d
       0.17496987 0.095972985 0.07741106 0.08408544
000390 ac 00 c7 3d cb 7b ec 3d 2b 5b 5d 3e 89 55 21 3d
       0.09716925 0.11547049 0.21616809 0.039388213
0003a0 25 00 1f 3e 21 67 e8 3d c8 66 33 3e a7 4f 5b 3e
       0.15527399 0.11347795 0.17519677 0.21417104
0003b0 7a 21 0d 3e 96 2a 3c 3d 2e 0c 4a 3e 89 c9 76 bd
       0.13782302 0.04593905 0.19731209 -0.060250793
0003c0 17 d9 b5 3d a6 8e e8 bb 2e e1 a1 bc d6 62 4b 3d
       0.08879297 -0.007097083 -0.019760694 0.049654804
0003d0 dc b9 99 bb 5d 84 af 3d c2 03 34 3e 65 1e ed 3d
       -0.0046913456 0.08570168 0.17579558 0.11578063
0003e0 c8 82 b9 3d 5f 94 34 3e 1a 36 ea 3d 41 eb 21 3e
       0.09058148 0.17634724 0.114361 0.15812398
0003f0 47 52 46 3e 78 a9 06 3e 28 ad 6f 3d f6 b2 5e 3d
       0.19367324 0.13150585 0.058514744 0.05436989

batchnorm.weight f4 [64]
000000 30 23 9d 3f 7e 6d ba 3f d8 34 a0 3f ef 4c c6 3f
       1.2276363 1.4564664 1.2516127 1.5492228
000010 54 1f a2 3f b3 c9 9d 3f 0d 85 a2 3f 02 9c 9d 3f
       1.266581 1.2327179 1.2696854 1.2313235
000020 54 c3 a1 3f 6b 1b a2 3f 7a ce a2 3f d9 29 a1 3f
       1.2637734 1.2664617 1.2719262 1.2590896
000030 67 36 9f 3f e0 d3 a6 3f f6 e7 9f 3f a0 e9 af 3f
       1.2438477 1.3033409 1.2492664 1.3743172
000040 cd 4c 9a 3f 3b bb c1 3f ca f7 a2 3f b0 3e a8 3f
       1.2054688 1.5135263 1.2731869 1.3144131
000050 2d 48 b0 3f d0 7c a7 3f ef 8c b2 3f 12 16 b1 3f
       1.3772026 1.3084965 1.394926 1.383486
000060 05 94 af 3f db 98 a8 3f ff 7d a5 3f 1e 52 a2 3f
       1.3717047 1.3171648 1.2929076 1.268131
000070 8a bc a8 3f 9a 5a 9f 3f ab 49 a6 3f f4 54 91 3f
       1.3182538 1.2449524 1.2991232 1.1354051
000080 58 66 9a 3f f5 c6 9e 3f dd 76 b6 3f f4 c4 a6 3f
       1.2062483 1.2404467 1.4255024 1.3028855
000090 f0 25 a3 3f 4d 97 a0 3f e4 06 bd 3f 06 6f a3 3f
       1.2745953 1.2546173 1.4767728 1.2768257
0000a0 16 7d a2 3f 55 2e ac 3f 52 b5 97 3f 1c e9 a1 3f
       1.2694423 1.345164 1.185221 1.2649264
0000b0 77 c1 aa 3f 8c 78 9a 3f 2d 93 b0 3f 16 52 a0 3f
       1.3340291 1.2068038 1.3794914 1.2525051
0000c0 c2 f9 91 3f f1 72 a8 3f 75 8a b3 3f 66 76 b9 3f
       1.1404345 1.3160077 1.4026629 1.4489257
0000d0 f1 be b2 3f 6d e3 9a 3f 56 26 a8 3f ba ef a1 3f
       1.3964521 1.2100655 1.3136699 1.2651284
0000e0 f3 3e 9f 3f 65 ee 9a 3f a4 57 98 3f 57 84 9b 3f
       1.2441086 1.2104002 1.1901746 1.2149762
0000f0 44 f0 9e 3f 39 f6 9f 3f 82 04 ac 3f 8a c6 a1 3f
       1.2417073 1.2497016 1.3438876 1.2638714

batchnorm.bias f4 [64]
000000 58 e0 f6 bd 49 43 7f bd 5a 50 2e bd 5c ba f4 bd
       -0.12054509 -0.062320028 -0.042557098 -0.11949608
000010 00 10 b5 bc 01 f3 1f 3e 6f 02 37 3d 76 74 59 3d
       -0.022102356 0.15620042 0.044680055 0.05308958
000020 e6 f9 13 3d f1 ad 6b 3d 71 d5 0e bd 89 ca 0a bc
       0.036126994 0.05753893 -0.034871522 -0.00847114
000030 9f 8a 5f 3d cb b9 42 3e 06 12 ae 3d be af 8c bd
       0.05457556 0.19016187 0.084995314 -0.06869458
000040 24 60 93 bd e3 7c 12 bb dc 62 4b bd 72 38 f1 3d
       -0.07196072 -0.002235227 -0.049654827 0.11778344
000050 3d 99 be bd 77 d2 fe 3c 44 33 b8 3d 49 f7 04 bd
       -0.09306572 0.031106217 0.08994153 -0.032462392
000060 ea 5d 74 3d 22 68 59 3d 03 32 82 bd 48 02 6e 3c
       0.059659876 0.053077824 -0.06357195 0.014526911
000070 76 32 24 bc 9a 66 17 3e 5f e7 61 3d a1 cb e0 bd
       -0.010021796 0.14785233 0.055152293 -0.10976339
000080 14 9c 91 bd e1 74 d7 bc 50 9b ee 3d ae 7c 58 bd
       -0.07109848 -0.02630085 0.11650717 -0.05285328
000090 d2 5f 04 3d 6b b0 ca bb 85 d3 8d bd 1a 1b 05 bd
       0.032317944 -0.0061855814 -0.0692511 -0.03249655
0000a0 46 21 53 3d 3f cf d7 bd e4 1c 69 3d d8 9b 6f 3c
       0.051545404 -0.10537576 0.056912318 0.014624558
0000b0 1c 00 46 bd dd e6 20 bd 50 4a 35 3e 34 24 fa 3c
       -0.048339948 -0.03928267 0.17704129 0.030534841
0000c0 1e 83 aa 3d 70 6e 93 bc fd ec e0 39 68 8a ee 3d
       0.0832579 -0.017996997 0.0004290118 0.11647493
0000d0 d7 ce 29 3e b8 09 bd 3d b6 07 0b 3d 46 8e 99 3d
       0.1658281 0.09230369 0.0339429 0.0749784
0000e0 6c cd da bd 95 ec cf 3d 31 45 91 bd 87 3b 14 3d
       -0.10683712 0.10152546 -0.07093275 0.036189582
0000f0 87 de ac bd fe 79 b6 3d b8 ee a9 3a da ff 07 bc
       -0.08440881 0.08909987 0.001296482 -0.008300746

batchnorm.running_mean f4 [64]
000000 81 a6 fd 3d 7a 25 cb bd 89 54 50 3d 39 eb 59 3c
       0.12385274 -0.099192575 0.05086187 0.01330071
000010 90 a6 e1 bd 7e ed 2d bd a2 af 03 be 6f 2d 36 3e
       -0.110180974 -0.04246282 -0.12859967 0.17790769
000020 96 a9 c4 3d 54 b2 a7 3d 84 2a bc 3e af ab 9b be
       0.096026585 0.0818831 0.36751187 -0.30404422
000030 7c ef 25 be 61 94 eb be f2 54 84 3e e8 31 9a 3e
       -0.16204637 -0.46011642 0.25846058 0.301162
000040 96 c2 8f be 28 38 9b 3e fe 99 99 3e 61 10 91 3e
       -0.28078145 0.3031628 0.300003 0.2833281
000050 f5 4e 8e 3e 18 9d a6 3e 03 2c a5 3e 89 bc 5d 3d
       0.27794614 0.32541728 0.3226014 0.05413488
000060 d9 19 9d 3e ff c2 49 3e cf 47 8a 3e d4 dc 84 3e
       0.30683783 0.19703291 0.2700791 0.25949728
000070 77 40 b9 3d f9 e6 8b be b8 94 d2 be c5 f2 12 3e
       0.09045499 -0.27324656 -0.41129088 0.14350422
000080 5e e5 89 3e b6 5c 4c be 90 66 8c be ea ce 61 bc
       0.26932806 -0.19957241 -0.27422 -0.013782242
000090 5c 42 42 be 34 53 0c 3e 14 00 99 be 2e 28 87 3d
       -0.18970627 0.13703614 -0.29882872 0.065994605
0000a0 af 5c 1b bc fd 38 41 3d 4b 75 41 bc 31 bb 43 be
       -0.009482547 0.04717349 -0.01180775 -0.19114377
0000b0 ae c9 b3 be d9 16 05 3d 7f 8c 8c be 2c 41 85 be
       -0.35114807 0.032492492 -0.2745094 -0.26026285
0000c0 af 39 18 3e d0 7a 54 3e bb 25 b3 3c 42 70 49 be
       0.14865755 0.20749974 0.021868577 -0.19671729
0000d0 9e c5 3f be 8e 33 99 be 75 e3 a1 3e 31 cf 18 3d
       -0.18727729 -0.29922146 0.31618848 0.037306968
0000e0 05 ed 61 bc 73 f7 90 be eb b1 99 3e 92 b9 55 be
       -0.01378942 -0.2831379 0.30018553 -0.2087157
0000f0 ae 7b d8 3e d9 22 38 3e 2e 4b b7 3e dc b7 9d 3e
       0.4228186 0.17982043 0.35799545 0.30804336

batchnorm.running_var f4 [64]
000000 73 f0 06 3d f7 c3 27 3e fe b2 5d 3e 52 98 4f 3e
       0.032944154 0.16383348 0.21650311 0.2027295
000010 fb cb 0f 3d c4 ac c5 3d 5c 98 0b 3e 20 4c 97 3d
       0.03510664 0.09652093 0.13632339 0.073875666
000020 00 4e 64 3d 03 e5 05 3e 5a 1e 1c 3e ff bd b2 3d
       0.05573845 0.13075642 0.15245953 0.08727645
000030 71 cf 79 3d 86 0c 3a 3d 07 fe fb 3d 87 9e d8 3d
       0.060988847 0.0454221 0.12304311 0.10577112
000040 91 ff c4 3d c4 a1 72 3c d8 9b b5 3d 81 9e 3f 3e
       0.09619058 0.014809076 0.088676155 0.18712808
000050 42 69 aa 3c cc 74 bb 3d 3b 93 63 3e 0b 87 2c 3e
       0.020802144 0.091531366 0.22224133 0.1684839
000060 dd e2 3c 3d d9 78 cc 3d 7e a1 f2 3d 84 3b 82 3e
       0.04611479 0.09983987 0.118472084 0.25436032
000070 a1 2f 2a 3e e1 c6 c7 3d 2b f8 7a 3e 38 51 aa 3d
       0.16619731 0.0975473 0.24508731 0.083162725
000080 e9 70 57 3d 4a e1 c0 3e 44 f0 09 3d 43 59 cc 3e
       0.052597914 0.37671882 0.0336764 0.3991185
000090 01 b2 89 3e 42 43 d4 3e b2 6e 3c 3e 72 7a 7c 3e
       0.2689362 0.41457564 0.18401602 0.24656084
0000a0 4c a9 42 3e 94 8d 0c 3d dd e2 a2 3e 67 80 83 3e
       0.19009894 0.034314707 0.31813708 0.256839
0000b0 58 bc 31 3d 55 11 ff 3d a5 73 31 3e 36 c7 1f 3c
       0.04339251 0.12454478 0.17329271 0.009752085
0000c0 65 4c ed 3d ed b2 2f 3e ce c9 55 3d ee a6 0a 3e
       0.11586837 0.17158099 0.05219441 0.13540241
0000d0 fb b6 4e 3e 62 4c 1b 3e 37 93 95 3e 55 8a 02 3e
       0.20186989 0.15165856 0.2921388 0.12748082
0000e0 e0 f7 9d 3d 1c 2a 83 3d c2 3b 16 3e c3 8d 13 3e
       0.07713294 0.06404516 0.14671233 0.14409547
0000f0 22 41 2c 3e f8 de 68 3e a8 c2 a9 3d 7c f8 9f 3d
       0.16821721 0.22741306 0.08289081 0.078110665

fc1.weight f4 [32, 64]
000000 af 2c 5b 3e 5c 1f 41 be 2c a2 08 3e 95 cf 40 bd
       0.21403764 -0.18859619 0.13343114 -0.047072966
000010 e4 69 e3 bd d8 bd 60 3d 91 b0 7a 3d 43 fd 88 be
       -0.111041814 0.05486855 0.061203543 -0.26755723
000020 b0 94 08 3d f4 77 0b 3e 12 89 35 be 09 56 c8 bd
       0.033344924 0.13619977 -0.1772807 -0.09782035
000030 52 98 02 be 76 78 aa 3c f7 d0 ff 3c 3c 4a 13 3e
       -0.12753418 0.020809393 0.031227572 0.14383787
000040 3b 9a d8 bd 0d 6e 5d 3e 56 41 63 be 6b 57 2f be
       -0.10576292 0.21624012 -0.22192892 -0.17123191
000050 6d f2 2e 3d f4 21 6e bd 04 aa 98 bd 8e f2 0b be
       0.042711664 -0.05813785 -0.07454303 -0.13666746
000060 32 80 97 3e 36 ac 8f 3e f3 7a ac bb bd ee 93 3e
       0.29589993 0.28061074 -0.00526368 0.2889308
000070 05 7a ba 3c 63 73 b0 bd a0 22 1f be 4c 05 99 3d
       0.022763262 -0.08615758 -0.15540552 0.074717134
000080 dd 55 07 3e c3 a8 da bc f9 39 e6 3d 97 41 16 be
       0.13216348 -0.0266918 0.11241526 -0.14673458
000090 23 11 af bd ce 84 10 be 08 a4 df bd 91 77 2c be
       -0.085481904 -0.14113161 -0.10919958 -0.16842486
0000a0 93 b4 44 3d d4 4c 4e 3e 5d 96 44 3d 1e 19 57 be
       0.04802377 0.20146495 0.04799496 -0.21005675
0000b0 0b ea 02 3e 9e 1a a9 3d 10 06 5a 3e 81 9a e0 bc
       0.12784593 0.0825703 0.21291375 -0.027417423
0000c0 be 67 51 bc 88 83 98 be a4 bc 7c be 15 a1 55 3e
       -0.012781082 -0.2978785 -0.24681336 0.20862229
0000d0 b6 29 51 be b1 8d a9 bd 4a a0 34 3e d9 ec 44 be
       -0.20426068 -0.082789786 0.1763927 -0.19230975
0000e0 82 c1 6d bd b5 27 d7 bd 50 6b da 3d 29 06 54 3d
       -0.05804587 -0.105056204 0.106649995 0.051763687
0000f0 ce 44 f3 3d 93 cb 99 3d 1d 9e 85 bd 52 15 5b be
       0.11878358 0.07509532 -0.06524298 -0.21394852
000100 3a ea ab be 1d a0 d7 3d e6 83 8b 3d d4 c3 07 3e
       -0.33577138 0.10528586 0.06812267 0.13258296
000110 82 8a 1e bd f3 9a d9 3b 1b e4 b0 3d c4 58 46 3e
       -0.03870631 0.006640786 0.08637258 0.19369799
000120 e0 ff b8 3d 66 85 dc bc ba 2a ce bd 00 dc 4b be
       0.09033179 -0.026919078 -0.10066743 -0.19908142
000130 cf 03 3e 3a 44 43 93 3e 9e 9a 43 3d 66 e6 1f bd
       0.00072484923 0.28762257 0.047754876 -0.039038084
000140 96 78 c5 bc 43 ca b5 bd 10 ff af 3d 1c 26 32 3e
       -0.024105351 -0.08876469 0.08593571 0.1739735
000150 af 46 ce 3d 34 09 6a be 5a 13 fa 3d ee d4 1c bd
       0.100720756 -0.22855073 0.12210722 -0.038289003
000160 fe 64 21 be 62 7b d1 bd 4b 64 02 be 1d 88 e9 bb
       -0.15761182 -0.102286115 -0.12733571 -0.0071268217
000170 03 77 ab bd 73 81 80 3e 36 e4 67 3e fc 8a 4a be
       -0.08372309 0.25098762 0.2264565 -0.19779581
000180 97 6f 62 bd 4a f2 07 bd 43 21 61 be 1e ae 98 3d
       -0.0552822 -0.03319005 -0.21985345 0.07455085
000190 37 6e 62 bc 2e 3d 7d 3d 20 1d 27 3d 32 91 ca bd
       -0.013820223 0.061825924 0.04079926 -0.09890975
0001a0 9b 95 94 3d c0 2c de bd 3c ee f1 bc d9 6a 65 3d
       0.072550975 -0.10848379 -0.029532544 0.0560101
0001b0 78 c9 02 be 94 5a 28 be 7f 5b d1 bd e1 50 e0 bd
       -0.12772167 -0.16440803 -0.102225296 -0.109529264
0001c0 b4 cc 91 bd 28 1f 38 3e 6e 22 39 3c 38 dc 64 3e
       -0.07119122 0.17980635 0.011299713 0.22349632
0001d0 93 d7 75 3e 65 22 bb 3d 12 4a 74 be 45 8a 98 3e
       0.24008016 0.091374196 -0.2385638 0.2979299
0001e0 70 fd 32 3d e0 5a bb ba 57 00 b1 bd 06 3d df bb
       0.043698728 -0.0014294051 -0.08642643 -0.0068126945
0001f0 ff cd c8 be e9 b0 4a 3e 94 3e 5c 3e 2b 05 9a bd
       -0.39219663 0.19794048 0.21508247 -0.07520517
000200 ce 91 97 bb d0 8e 41 bc 24 6e 5b be 69 9f 75 bd
       -0.0046255356 -0.011813834 -0.21428734 -0.05996648
000210 df e1 8e 3d a5 3e 0b be 24 a0 b9 3d a2 53 bc 3d
       0.06976675 -0.13598116 0.090637475 0.09195639
000220 cb f2 22 be ad a1 63 be b4 d4 6e 3d 50 c1 a0 3d
       -0.1591293 -0.22229643 0.05830832 0.078493714
000230 27 5b 6a bd d6 f2 13 be 22 f5 89 3c 1c 13 8d 3c
       -0.057215836 -0.14448103 0.016840521 0.017221026
000240 3a 68 df bd a6 f3 26 bc a9 2f 0a 3d d2 b5 f5 3c
       -0.109085515 -0.010189926 0.03373686 0.029993925
000250 32 ce de 3d 7c 0e 4a 3e b9 4c 4c bd cf 12 d3 3d
       0.108791724 0.19732088 -0.049877856 0.10306322
000260 46 1b 59 bd ae d2 0a be 83 5f 1a 3e 22 31 7b bb
       -0.053004526 -0.1355693 0.15075497 -0.0038328846
000270 74 04 a6 3d 8d 2f c7 3c 6a 86 a2 bd d0 36 11 bd
       0.08106318 0.024314666 -0.07935794 -0.035452664
000280 dc 27 1e 3d 49 b6 31 be 11 52 4a 3c 2a 46 91 3c
       0.03861223 -0.17354693 0.012348668 0.017733652
000290 98 73 94 3d 5e af 34 3d 0e b5 cd 3d f0 4d 3a 3e
       0.0724861 0.044112556 0.10044299 0.18193793
0002a0 20 99 fd 3c be 87 80 bd cc 0a e5 3c 93 ba ad 3c
       0.030956805 -0.06275891 0.02795925 0.02120713
0002b0 0a 95 21 be 05 66 a8 3c 42 bd f5 bd 2e 52 ad 3d
       -0.1577951 0.02055646 -0.11998989 0.0846294
0002c0 c5 ab 7e 3d 43 27 43 3e 91 f3 2f 3e ca d1 5e be
       0.06217553 0.19057946 0.17182757 -0.21759716
0002d0 df d3 d0 3d 47 c8 43 3e e0 dc eb bd f9 f6 cb 3d
       0.10196661 0.19119368 -0.11516738 0.09959216
0002e0 fe 11 0d 3e 28 4a f8 3d fb a9 9d 3d 4f 46 f5 bd
       0.13776395 0.12123519 0.07698437 -0.11976301
0002f0 0d de e6 3c 95 e6 c5 bd 8f 3e 64 be c0 87 4b 3e
       0.028182054 -0.09663121 -0.22289489 0.19876003
000300 fc c8 9a 3d 35 00 01 3e 94 f3 8c be db aa bd be
       0.07557866 0.12597735 -0.27529585 -0.37044415
000310 68 bb 80 3d 6a f8 95 3c 5e 6f a2 3e 78 4e 32 bc
       0.06285745 0.01830693 0.3172559 -0.010882966
000320 b9 95 8d be 12 f8 8c be 8d 0c 54 3e 42 d7 25 3e
       -0.27653292 -0.27533013 0.20707913 0.16195396
000330 98 f1 8b 3d 00 de 55 3d f1 1d 87 3c 87 f4 da bc
       0.0683319 0.05221367 0.01649377 -0.026727928
000340 a0 b5 9c be 08 59 7a bc f7 f1 75 bd 4f d2 00 3d
       -0.3060732 -0.015280016 -0.06004521 0.031450566
000350 95 89 06 be 27 20 6a 3e 18 f0 50 3e f6 07 f1 bd
       -0.13138421 0.22863828 0.20404088 -0.117690966
000360 ac a2 16 3e ab 5b de bb 77 78 14 3e 7b d4 f0 ba
       0.14710492 -0.00678583 0.14499079 -0.0018373871
000370 e3 ae 11 3e 63 bc 33 3d 88 4a 30 be 5a 1e 73 bd
       0.1422687 0.04388083 -0.17215931 -0.059355117
000380 45 fb 55 3e bd f7 95 be 93 d4 ae bd b8 93 43 be
       0.20896633 -0.29290572 -0.08536639 -0.19099319
000390 4b ed 4e 3d ae ae 84 3d 1a ca 02 bd f1 22 63 3e
       0.05051927 0.0647863 -0.03193102 0.22181298
0003a0 c0 72 18 bd 6a 3a aa 3d 55 4f 7f bc c2 f3 c1 bd
       -0.03721881 0.08311923 -0.015582879 -0.09470321
0003b0 44 5a 1a be 02 d8 ae bc 16 11 67 be 69 12 24 3e
       -0.15073496 -0.021343235 -0.22565112 0.16022648
0003c0 91 19 d1 3d 4d 97 76 3e 66 df 74 3d 8a 42 3c bb
       0.102099545 0.24081154 0.05978336 -0.0028726184
0003d0 5a 28 d6 3d 10 c3 a3 3e 30 c2 f7 bd 55 86 2e bd
       0.10456915 0.31984758 -0.12097585 -0.042608578
0003e0 fd 30 19 bc 91 96 05 3e 7d 05 22 3e 37 48 00 ba
       -0.009350059 0.13045718 0.15822406 -0.00048935734
0003f0 d7 09 9d bc 5b 1c 9c 3d c9 68 c7 bd 7f 10 0d 3e
       -0.019169731 0.07622596 -0.09736783 0.13775824

fc1.bias f4 [32]
000000 d0 54 e3 3d ca b2 ba 3d 1a b9 89 bd 76 a2 3f 3e
       0.11100161 0.091161326 -0.067247584 0.18714318
000010 6a be 19 3e 3d 9d 67 3e 55 86 3b 3e 3f 7e 40 3b
       0.15014043 0.22618575 0.18312962 0.0029372124
000020 7d 50 29 3e b5 66 2b 3e 78 95 2b 3d 95 5d c9 3b
       0.1653461 0.16738398 0.04189059 0.006145189
000030 97 7b 7d 3d fd 8e 2c 3e d1 18 bd bd ac 7c 32 be
       0.061885443 0.1685142 -0.09233249 -0.17430371
000040 6e bf 02 bc d5 d2 8b 3e 99 5e 7c 3e 30 82 4f 3d
       -0.007980211 0.2730929 0.24645461 0.050661266
000050 54 ec f5 3d c4 77 0e bc 27 47 23 3e d9 b4 36 bc
       0.12007967 -0.008695547 0.15945111 -0.011151516
000060 20 27 a1 3d fc 85 80 bd 4d d2 b6 bd 42 8c 89 3e
       0.078687906 -0.062755555 -0.089268304 0.2686482
000070 82 24 33 3e 3d 65 23 3d 7b 90 8b 3c d5 b6 96 bd
       0.17494395 0.03989147 0.017036667 -0.07359091

fc2.weight f4 [10, 32]
000000 37 6f 87 3e 02 e5 17 be f0 b0 ca be f7 b9 a6 be
       0.26452038 -0.14833453 -0.39588118 -0.32563755
000010 20 10 ed be f4 ef 4e 3e a9 ab 3d be b4 d3 8d be
       -0.46301365 0.20208722 -0.18522514 -0.2770058
000020 cb 74 89 be 90 d0 69 be 1f 21 d9 be ca e6 b9 be
       -0.26846918 -0.22833467 -0.42408082 -0.3630889
000030 21 c1 8c be 33 9a 6c 3e 53 3c 38 3e 85 81 96 be
       -0.27491096 0.23105697 0.17991762 -0.2939569
000040 b4 65 97 be b5 8e 80 be 2d 18 7e 3e fd a7 3c be
       -0.2956978 -0.25108877 0.2481391 -0.18423457
000050 26 f1 9b be c3 b7 6a 3e 02 0a 7a 3e f2 a7 ad be
       -0.3045742 0.22921662 0.2441788 -0.33917195
000060 98 6d 80 3e 3a 1b 48 3e 7b 64 46 3e b2 7c 1e 3e
       0.25083613 0.19541636 0.19374268 0.15477255
000070 2f 00 f1 be 91 af 04 bf 01 bc 73 be 48 dd 2c be
       -0.47070453 -0.51830393 -0.23802187 -0.16881287
000080 76 10 58 be 55 54 8b 3e 8d 44 d5 be 79 69 b0 be
       -0.2110003 0.27212778 -0.41653863 -0.3445547
000090 3e 1c 1f 3e bd 78 8f be ca 76 0b 3e 04 0b dd be
       0.15538117 -0.28021803 0.13619533 -0.43172467
0000a0 42 82 93 be 0e 69 44 3e c3 17 0c be 86 36 9f bd
       -0.28810316 0.191807 -0.1368094 -0.077740714
0000b0 7e 70 99 be b1 94 0e bf 96 28 8f be a6 6b 63 3e
       -0.29968637 -0.55695635 -0.27960652 0.22209033
0000c0 42 10 80 3e 39 88 5d 3e fc 91 44 3e 53 75 1a be
       0.25012404 0.21633996 0.19196314 -0.15083818
0000d0 e8 8e c2 be d2 d6 9b be 0d 39 5d 3e 6a d1 98 be
       -0.37999654 -0.30437332 0.21603794 -0.2984727
0000e0 66 48 30 3e 1a 67 3b bb 0d 5c f6 bd 09 25 83 be
       0.17215118 -0.002859539 -0.12029276 -0.25614193
0000f0 85 b5 87 3d ca cd 1d 3e 9e 5f 23 3e 3c 32 bc bd
       0.06626419 0.15410534 0.15954444 -0.09189269
000100 fb 90 42 3e c7 6c 50 be a0 e8 e3 bd 3f 6e 88 be
       0.19000618 -0.20353995 -0.11128354 -0.2664661
000110 4a 3b 7c be d7 d1 2d be 39 b2 99 be f5 fe 39 be
       -0.24631992 -0.16974579 -0.30018786 -0.18163665
000120 02 74 57 3e 37 eb 5c be a9 7e 2a 3e a1 89 4c 3e
       0.21040347 -0.21574102 0.1664988 0.19974376
000130 89 a4 45 be 29 27 84 be a1 d7 c2 bd 80 24 1e be
       -0.19301046 -0.25811127 -0.09513784 -0.15443611
000140 4b ed a5 bd 86 f2 73 3e b1 93 b4 bd fd 5e 8f 3e
       -0.08101901 0.23822984 -0.088172324 0.28002158
000150 84 5b 84 be 2a b8 7d 3e 3e bf 1e be 59 21 3d be
       -0.2585107 0.24777284 -0.1550264 -0.18469752
000160 3c 1f 1f be 69 d3 4d 3e 6e 89 16 3e 6b 13 20 be
       -0.15539259 0.20100178 0.14700863 -0.15632407
000170 01 f6 56 be f0 12 54 be 69 2f 8c 3d 4d e6 77 3e
       -0.2099228 -0.20710349 0.0684498 0.24208947
000180 05 57 59 3e dc d0 0c be c6 83 ec bc 00 eb a8 3d
       0.21224602 -0.13751549 -0.028871428 0.08247948
000190 0e 51 04 3e d9 2f 4b 3e 64 b2 9c be b1 64 67 be
       0.12921545 0.19842471 -0.3060485 -0.22597004
0001a0 cd b5 85 be 7d d9 4e 3e a7 3b 00 3e e2 96 30 3e
       -0.26115265 0.20200153 0.12522756 0.17245057
0001b0 0f fc d8 bd 92 a2 6d be 2b 76 96 be b3 f6 97 be
       -0.10594951 -0.23206547 -0.2938703 -0.29680404
0001c0 44 51 b6 bd f7 6a 46 3e fb a9 61 be f2 c5 01 bd
       -0.08902219 0.19376741 -0.22037499 -0.031682916
0001d0 a5 66 14 3e c6 23 6c be 67 11 5a be 81 2a 35 3e
       0.14492281 -0.23060521 -0.21295701 0.17691995
0001e0 91 0a 45 3e 27 1e 67 3e a8 26 45 be 51 b6 36 3e
       0.19242312 0.22570096 -0.19253027 0.17842986
0001f0 ce 7d 2d be fb ab 69 be 11 6c d3 be a4 15 68 be
       -0.16942522 -0.22819512 -0.41293386 -0.22664505
000200 9e 68 8b be 6d b7 3e 3e 5d cc 20 be 4d 0e b2 be
       -0.27228254 0.18624659 -0.15702958 -0.34776536
000210 18 d0 e4 be dc 6e ed be 37 a1 1b 3e da 87 3e 3e
       -0.44690013 -0.46373641 0.15198217 0.18606511
000220 2b 58 2b 3e 77 50 3a 3e 7f 95 bf be f7 d5 7d be
       0.16732852 0.18194757 -0.37418744 -0.24788652
000230 46 8a 37 3e 77 a4 39 3e 75 8b 14 be 46 db 44 3e
       0.17923841 0.18129145 -0.14506324 0.19224271
000240 ba 6c 70 be 71 77 90 be 3c 0a e5 3d 6d 30 23 be
       -0.23478976 -0.28216127 0.11183593 -0.15936442
000250 6e b2 f5 3d c1 a8 45 3e 9e bb 94 be a1 7b e4 bd
       0.119969234 0.19302656 -0.2904939 -0.11156393
000260 2f 63 09 bf fe 81 ae be 3d 7b 1e be fb 1d 82 be
       -0.5366697 -0.3408355 -0.15476699 -0.25413498
000270 96 ef c5 3d 44 e3 60 3e 3b 2d c0 3d 8d 66 62 3e
       0.09664838 0.21961695 0.09383627 0.22109433
000280 5e ec 12 be 7e da 4d be 1e df 60 3e 5d 3a 07 3e
       -0.1434798 -0.2010288 0.21960112 0.13205858
000290 92 82 57 3e 71 f7 7c 3e a1 bc 80 be 32 b4 ed bd
       0.21045902 0.24703766 -0.25143912 -0.11606635
0002a0 46 14 e6 bd fc 8f 97 be f0 ee cb be 77 01 7e be
       -0.112343356 -0.2960204 -0.39830732 -0.24805246
0002b0 9b f3 81 bd 43 3b 64 be fd 56 05 3e f0 ed fe bd
       -0.06345292 -0.22288232 0.13021465 -0.12447727
0002c0 4c a6 0e be 73 38 8b be ef f4 1d be e2 ac 70 be
       -0.13930625 -0.27191505 -0.15425466 -0.2350345
0002d0 d3 cf 2f be f9 6d 98 be 14 68 8c be 6d 87 67 3e
       -0.17169122 -0.29771402 -0.27423155 0.22610255
0002e0 6d 7d 57 be 55 2b 73 3e 38 e5 03 be 8a e4 76 3e
       -0.2104394 0.23746999 -0.12880409 0.24110618
0002f0 72 88 83 be ea 25 8f be 31 04 21 be 4d a8 1f bd
       -0.25690037 -0.27958614 -0.15724255 -0.038978864
000300 0c 8f 49 3e 98 73 96 be 19 3b 16 be 48 6d 39 be
       0.19683474 -0.29385066 -0.14670981 -0.18108094
000310 2f a0 00 3e 08 76 ae be 32 9c bd be 7f 00 4e 3e
       0.12561105 -0.34074426 -0.3703323 0.20117377
000320 ce cf 4b 3e 3e 0d 1f bf 9a 14 1a bf c7 ba f5 be
       0.1990349 -0.6212958 -0.60187685 -0.47994062
000330 2f 41 c0 be 7d 64 1c 3e af a8 46 3e 38 d4 7a 3e
       -0.3754973 0.15272708 0.19400285 0.24495018
000340 f3 19 a3 be ca a5 01 bf e3 32 83 3e 3e 0d 8a be
       -0.31855735 -0.506436 0.2562476 -0.26963228
000350 43 2d 01 bf 67 f7 03 be 37 63 3c be c3 9d ca be
       -0.5045969 -0.12887345 -0.18397222 -0.39573488
000360 91 51 15 be 07 f0 a2 be 68 92 34 3e f6 7d bf bd
       -0.14581896 -0.3182375 0.17633975 -0.09350197
000370 ed d2 e7 be f2 03 d4 bd 28 99 30 3e 92 39 80 3e
       -0.4527811 -0.10352315 0.17245924 0.25043923
000380 69 4e 87 be ca a0 41 3e 3e 89 38 be 77 b8 b0 be
       -0.2642701 0.18908992 -0.18021104 -0.34515736
000390 88 6f bc be 28 57 1c 3e 80 00 00 3e 31 ce 32 be
       -0.36803842 0.15267622 0.1250019 -0.17461468
0003a0 d8 76 1d be 5a d8 51 3e 71 60 1f 3e e5 12 26 3e
       -0.15377367 0.20492688 0.15564133 0.16218145
0003b0 3a 22 2f 3e e7 6a af be d3 60 dd be 01 b4 8d be
       0.171029 -0.34261248 -0.43237934 -0.27676395
0003c0 9f 62 7c 3e a0 88 57 3e 15 c5 ad be a0 cb 68 3e
       0.24646996 0.21048212 -0.33939424 0.22733927
0003d0 0d 31 fb 3d 11 11 4b 3e 4e be 2e 3e 8b 78 19 3e
       0.12265215 0.19830729 0.17064783 0.1498739
0003e0 01 f4 2d be b6 3d 54 be a9 3d b7 be e8 6c a7 be
       -0.16987611 -0.20726666 -0.3578923 -0.32700276
0003f0 5a 30 c7 3d 39 ca 2a be 7b ca 9d be 5b 7c 35 be
       0.09726019 -0.16678704 -0.30818543 -0.17723219

fc2.bias f4 [10]
000000 26 9e f2 bd 02 6e 66 3d ae 8a 8d 3e f9 af b6 bd
       -0.11846571 0.056257255 0.27644867 -0.08920283
000010 17 65 d7 be 3a 02 a6 3e f9 ee ae 3d 90 e0 c0 be
       -0.42069313 0.32423574 0.08541674 -0.37671328
000020 8c 66 e0 3d 57 19 8c be
       0.10957059 -0.27363083
